chatbot_model.pth (torch, 64541 bytes, 6 tensors)

fc1.weight f4 [128, 52]
00000000: db2e fd3d 9fba 01be 6567 b9bd a625 18be
00000010: 3e02 00be 85f9 563c 1508 95bd e3df ecbd
00000020: b03d 2ebd 9f02 b73b 6ca8 e23d 0d01 31bd
00000030: ba92 eebd 5ec0 f0bd 22bc 273e 4f8b 173e
00000040: 2acf fe3d 11c3 a6bb 3cde 5f3d f858 063d
00000050: 5390 bcbd 7c41 203c a6ac 86bc be0a 17bd
00000060: 51b4 0e3e aa52 b93d 94c9 a4bd 2f5e 9f3d
00000070: 5f9c 993d 4ae7 9bbd d756 533e 28d4 473e
00000080: 1614 4d3e e813 c13d 225c 853d fd00 5bbd
00000090: fed5 233e 081b cf3c 914b 0a3d 6499 323d
000000a0: 73b5 4d3e dcb9 1f3e 7a92 cfbd 645d 383d
000000b0: 2cbc 1ebd 9df6 7c3d 60eb 5e3e 469a a0bd
000000c0: 1fde bdbc 4509 783d 8f8f 9cbd 68f8 303d
000000d0: 40ed 19be aa10 f93d 7825 a0bd 21a3 cb3d
000000e0: 0754 c33d 0b1e 2bbe f087 60bd 9e34 0e3e
000000f0: 7945 efbd a400 28bd 58ea 0cbe 1984 6ebd
00000100: 1ac3 963d 3037 0d3e b22b b2bd 0014 17bc
00000110: dc47 d43b 8259 dfbc bbd5 32be 67ee 313e
00000120: bd55 8fbd a8f8 f8bc 4429 40bd 213e 20bc
00000130: 0efd 9a3c 07c0 08be accb 413e a47e d6bd
00000140: 6cf5 163e fb5a 90bd 6171 f03c 99c3 0abe
00000150: e160 fbbc 306f be3c 1abf d83c 5a84 2fbc
00000160: 77df dbbc 7eb9 583d d391 90bd 445d a73d
00000170: 52aa 033d ddb8 18bc 04b1 833d 803d dd3d
00000180: afdf d5bd 598e ddbd 6a2a b9bd 6733 a6bd
00000190: 9471 dabc a8c8 abbd 45f0 463e 78ce 913c
000001a0: 5e20 27bd b5b5 503e c087 d53c e927 fc3d
000001b0: d701 0bbd 827a 143e 14ad dcbd 3d36 573e
000001c0: f2d0 e5bd 752f 6a3e a71e afbd 2653 d7bd
000001d0: 6f40 2b3e f39c be3d 3c7d 443d 3eda 8dbd
000001e0: 513a fcbc 90c7 49bd 23d9 e93d 3aae 043e
000001f0: efda fc3d 79a5 9b3d cce4 a1bc b133 af3c
00000200: 69e5 ef3d 3c15 ddbc d87a f53d 5698 1ebe
00000210: 9657 383d 136e 06be dd9b 0bbe 3f30 b0bd
00000220: 71fe bfbd 3ce1 983c 0d7b ddbd 6549 e5bd
00000230: 580c d9bd c072 bc3d 548c 2e3d 5b3e e0bd
00000240: 4776 98bd 3636 cebd 5329 80bb 81da 8cbd
00000250: b962 91bd dfd0 adbd 0ea0 2bbe 6b07 07be
00000260: 3895 79bc 28f1 cdbd 6bb1 103e c1b5 203e
00000270: 8ee2 4abe 7265 f93d 60fd 9f3c 975d 4a3e
00000280: 5b31 07be 8ebf 17bc e87f c03c b3cf 623e
00000290: d716 16be 427f a1bc 7ae1 46bd 8a78 fb3c
000002a0: 9fbe ff3c 242d 593d 22a5 54bd 5dfb c83c
000002b0: 4e65 aa3b 3cc9 593e 2dc3 90bd 6a92 433c
000002c0: fcf8 b63d daf7 a73d 0dcc dabd 5793 393d
000002d0: f280 ee3d fa3a 76bd 50b9 543d 0ea4 2abe
000002e0: ffe8 153e 13a6 44be 47bb 1dbc cb2a 583c
000002f0: 390e d03b 985c e8bc 0031 80bd 0bc1 943d
00000300: 11ad 48be 83e4 a23b dbdc edbd 5ca7 debc
00000310: 68c0 f3bd e418 a4bd 88cf a4bc 10ec e03c
00000320: 7abd 0a3e a3bc a2bd 8d4c 4b3c 729b f3bd
00000330: 9320 a63d 3115 9dbd 443c 2e3e fc6c f83d
00000340: ca04 a13d f7d6 dabd 070d ab3c 1bc5 1dbd
00000350: 8709 2c3e f962 e33d 00a0 a33c 7b10 1cbe
00000360: a595 133d 5a76 1e3d 5580 ed3d 73b9 74bd
00000370: a54f 1cbe ae52 573d 2d7f 99bc 73a7 e13d
00000380: 5cbc d03d 0c50 4abd d3cc 5a3e 6dd4 25be
00000390: 5a60 4f3e 0603 4f3e 77b8 4b3e 30c3 083e
000003a0: 6de6 3dbd b5e0 70bd 251b d43d 2836 88bc
000003b0: 2739 82bd 14ce 76bd ccd5 3a3e 7da7 0e3e
000003c0: 3e82 263e cbb3 90bd c1ea 0e3d 13e6 ca3d
000003d0: fbb0 613d c7d8 d8bd 8562 7a3d 0351 bb3c
000003e0: c3cd 713e 88b2 7e3d 4577 383e 0e37 153e
000003f0: 74be 55bd 9e4e 6c3d 1d56 06be 505c 02be
0.123624526 -0.12668847 -0.09052924 -0.14858112 -0.12500855 0.0131210135 -0.07276932 -0.115661405
-0.0425393 0.0055850293 0.1106728 -0.043213893 -0.116490796 -0.11755441 0.1638036 0.14799236
0.12441857 -0.0050891717 0.0546553 0.03279969 -0.09207215 0.009781238 -0.016439747 -0.03687548
0.13935973 0.0904897 -0.080462605 0.07781636 0.075005285 -0.07612474 0.20638596 0.19514525
0.20027193 0.09427625 0.065117136 -0.05346774 0.159996 0.025281444 0.033763472 0.043603316
0.20088749 0.15598243 -0.1013536 0.04501094 -0.038753673 0.061758626 0.21769476 -0.07841925
-0.023177205 0.060555715 -0.07644569 0.04320565 -0.1503191 0.121613815 -0.078196466 0.09943224
0.09537511 -0.16710679 -0.05481714 0.1388726 -0.11683173 -0.041016236 -0.1376127 -0.058231447
0.073614314 0.13790584 -0.086997405 -0.009221077 0.006478293 -0.02726436 -0.17464344 0.173761
-0.06998775 -0.030392006 -0.046914354 -0.009780438 0.018919494 -0.13354503 0.18925351 -0.104733735
0.14742059 -0.07048603 0.029350938 -0.13551177 -0.030685844 0.023246378 0.026458312 -0.010712707
-0.026839955 0.052911274 -0.07059064 0.08172086 0.032144852 -0.009321419 0.064302474 0.10802746
-0.10443055 -0.10818166 -0.09041293 -0.08115273 -0.026665486 -0.083878815 0.19427593 0.017798647
-0.040802352 0.20381816 0.026065707 0.123123 -0.0339373 0.14499858 -0.107751995 0.21016784
-0.11221494 0.22869666 -0.08550768 -0.10513906 0.16723798 0.093072794 0.047970995 -0.06926392
-0.030789526 -0.049262583 0.11418369 0.12957087 0.12346446 0.07599921 -0.01976242 0.021386953
0.117136784 -0.026987664 0.11986321 -0.15487799 0.045005403 -0.13127927 -0.13633676 -0.08602952
-0.09374703 0.018662088 -0.10814486 -0.111956395 -0.105980575 0.09201574 0.042614296 -0.10949393
-0.074444346 -0.10068934 -0.003911176 -0.06877614 -0.07098908 -0.084871046 -0.16760275 -0.13186423
-0.01523333 -0.100557625 0.1413018 0.15694334 -0.19812986 0.12177552 0.019529998 0.19762264
-0.13202421 -0.009261979 0.02349849 0.22149543 -0.1465715 -0.019714002 -0.048554875 0.030697126
0.031218825 0.053021565 -0.051915295 0.024533922 0.0052000647 0.21268171 -0.07068477 0.011936763
0.08934209 0.08201571 -0.10683451 0.04530653 0.11645688 -0.06011484 0.05193454 -0.16664144
0.14639662 -0.19203977 -0.00962717 0.013193796 0.0063493517 -0.028364465 -0.06259346 0.072633825
-0.1959727 0.0049710884 -0.116143905 -0.027179413 -0.11901933 -0.0801256 -0.02011849 0.027456313
0.13548842 -0.07946136 0.012408388 -0.11894883 0.08111682 -0.076700576 0.17015177 0.12130162
0.078622416 -0.106855325 0.020880235 -0.038518053 0.1680051 0.11102862 0.019973755 -0.15240662
0.036031384 0.038687088 0.11596743 -0.05974717 -0.15264757 0.052569084 -0.0187374 0.110182665
0.10192177 -0.049392745 0.21367197 -0.16194315 0.20251599 0.20215997 0.19894587 0.13355708
-0.04636233 -0.058808047 0.1035674 -0.016627386 -0.06358557 -0.060255125 0.1824562 0.13931079
0.16260621 -0.07065543 0.034891848 0.099071644 0.055100422 -0.10588222 0.06112911 0.022865778
0.23613648 0.06218198 0.18014248 0.14571783 -0.052183583 0.057692163 -0.13118787 -0.12730527

fc1.bias f4 [128]
00000000: 7294 7a3c 2769 323e 5c99 593e ddbb 733e
00000010: bc74 233e 593f 513e 7a9d 453c 994c 9e3c
00000020: d0a8 313e 360a 11bc 3641 4bbc f4c2 fe3d
00000030: 437a d53b ceb3 ae3d 0fa1 863d 5106 e93d
00000040: a89e ed3d c35e 16bc d50e 64bd 5365 253e
00000050: 6248 fa3d 321a 113b 716e 6c3d f101 6fbd
00000060: a696 363e 45bb 563e 036b 943c ce4b 393e
00000070: e152 243e 52c6 a1bb 6a5f ea3c ed08 c33a
00000080: 9001 623d 6128 023e 2ede 823e 7978 9d3d
00000090: 1216 bcbb 003e 663d 7e00 c53d 3ee1 1dbd
000000a0: 112b 823e 0822 1e3e d737 d63d 037c 113e
000000b0: be54 0e3e 6928 193d 15ce d3bb c1be 1d3e
000000c0: 3adc 313e 7fe1 813e f511 393e 5551 e13d
000000d0: e18f 2c3e a15f 3e3e bf11 56bb 9b99 063e
000000e0: 0dec 003e 233f 883e 956c cb3d 8e6a e23d
000000f0: 20d6 b53d 87ed 63bd 198e 3c3e 1459 753d
00000100: fce9 223d beb4 3e3e fb07 133e 745d 4c3e
00000110: 1aad 303e 4cc5 a93c b78e 073e 914a 493e
00000120: 7161 da3d 7e41 0bbd 631f 213e 8d8a 203d
00000130: 15c2 993d d393 123e 564b cf3d e594 09bd
00000140: b7b3 26bd 3278 87bd e5c0 84bd 303d 9e3c
00000150: 3f4f 223e bed3 b43d 614c 5d3d c50b 1c3e
00000160: b191 193e 4873 fe3c 96d3 0d3e ccee 383e
00000170: b8be abbb 2841 b83d e6fb 5b3b 122f ac3d
00000180: f346 e03d d2a9 783e 7d66 923d a3c8 30bb
00000190: 4ddc 8e3c 0e25 983d e035 973c 4841 58bd
000001a0: 968f 573b d1a1 6e3d 72f0 943d 048a e63d
000001b0: cd28 993b dc2e 9e3d 8252 2abd b1b5 3e3d
000001c0: 5b21 2fbc 09d1 e73d 0ecf 953d c8a5 2f3e
000001d0: 4c5a 1a3e 083c 133e ce3b b93d c83c a33d
000001e0: f2e7 2e3e 917a 423e 2fbb 3c3b 6d16 103e
000001f0: 530c d63d 7a57 843d b027 5c3c 3a40 69bc
0.015294181 0.17422925 0.21249908 0.23802133 0.159625 0.20434321 0.012061471 0.019323634
0.17349553 -0.008852532 -0.012405684 0.12439528 0.006514819 0.08530389 0.06573688 0.11378158
0.11602527 -0.009177866 -0.055678207 0.16151933 0.12220837 0.0022140858 0.057722513 -0.05835146
0.17830905 0.20969875 0.018117433 0.18095323 0.16047241 -0.0049369717 0.02860995 0.001487998
0.05517727 0.12710716 0.25560135 0.07688994 -0.0057399357 0.05621147 0.096192345 -0.038544886
0.25423482 0.1544267 0.10459869 0.14207463 0.13899514 0.037392054 -0.006463776 0.15404798
0.17369166 0.25367352 0.18073256 0.11001841 0.1685176 0.18591167 -0.0032664386 0.13144533
0.12590046 0.2661067 0.0993282 0.1105548 0.08878732 -0.055646446 0.18413581 0.059899405
0.039773926 0.18623635 0.14358513 0.19957525 0.17253533 0.020723961 0.13238035 0.19657351
0.10663117 -0.033998005 0.1573463 0.039194632 0.07507721 0.14314203 0.10121791 -0.033589263
-0.040698733 -0.06614722 -0.06482104 0.019316286 0.15850542 0.08829449 0.05402792 0.15238865
0.14996983 0.03106083 0.13850245 0.18059844 -0.0052412413 0.089968026 0.0033566891 0.084074154
0.109510325 0.24283531 0.07148454 -0.0026975058 0.017439032 0.074289426 0.018458307 -0.052796632
0.003289198 0.05825979 0.07272424 0.11256793 0.0046740533 0.077237815 -0.04158259 0.046559993
-0.010689105 0.11319167 0.07314883 0.17153084 0.15073508 0.14378369 0.0904461 0.079705775
0.17080668 0.18992068 0.0028798094 0.14071055 0.104515694 0.06461997 0.013437197 -0.014236504

fc2.weight f4 [64, 128]
00000000: a812 a0bc b2e8 55bd b366 bbbd d636 5bbd
00000010: caf9 483d 831a ec3c dc12 a93b 2492 48bd
00000020: cf67 5e3d d23a 0c3d dd75 41bc de7b 893c
00000030: 23cb c6bd d483 383d 169b 333d aa00 653d
00000040: 8a8c d7bc def0 5e3c b158 4cbd e13c 15bd
00000050: 5a03 91bd 4f92 c1bd 5003 12bd 198a b3bd
00000060: 2181 68bd ce83 1fbd 7700 e33b b696 14bd
00000070: b4a8 25bd b37c 5dbc e469 84bd 9b2a a2bc
00000080: 6ff7 bdbd 77eb a03c 42d8 313d 0821 d83c
00000090: 5342 2bbd db7f 81bd b58c acbd 654d dbbb
000000a0: 142d 7dbc 98a2 0b3d ca64 c0bd 1a84 b73c
000000b0: 0ca3 32bd c93c be3b e6b7 043d c222 16bd
000000c0: 1c06 d03c 29bb 413c addc a2bd 42c1 333d
000000d0: b5d3 f3bb c614 55bd 460c 553d 05f1 10bc
000000e0: 0b20 a0bd da06 673d 5fd0 fc3c c766 9ebc
000000f0: a85e a5bd d870 91bd d00a e9bc d0dc b7bd
00000100: 1ceb e4bc e99c 8ebd 5f4e 1c3d 57e5 b9bd
00000110: 219d 083c 3afb 7b3c 381b ffbc f238 c5bc
00000120: 76e8 5bbc e81d 71bc 0d5b 4e3d 8419 583d
00000130: 3e1c a9bd 3b64 afbd 2b01 5a3d c9e6 ee3c
00000140: bd27 13bd 85de 5d3d 13a6 003d 4a09 dbbd
00000150: 51c8 97bd 93e0 0cbb 5c7a d8bb 6c48 eebd
00000160: b5c7 673d e71e 9ebd c67c 9fbd d292 933d
00000170: 69c4 42bd b18d abbd 98a0 8bbd 114d afbd
00000180: b46d 3ebc d42c 88bd 83a0 d6bc ac7c 7d3d
00000190: b2c4 a73b 856f 59bc 8793 9cbd a713 183d
000001a0: 1dfa 003d 3bba 483c 295e 77bd b800 73bd
000001b0: 8533 97bd 0e4d 8bbb d07d 22bb 20f6 a1bd
000001c0: 592f 673d 3e59 083d 4567 363c 610f fd3c
000001d0: d5c3 34bc a1d7 a43d 3680 183d fc94 23bd
000001e0: c32c 2d3b 9755 c4bd b69a f9bc 61c7 20bd
000001f0: 8bca 693b 7a23 cabd a8f6 043c 6035 7bbc
00000200: fe80 d5bc 20fb 033e 6fdb 1b3e 0df7 513e
00000210: d713 dd3d e13c 58bd eb3b a9bc c756 18bc
00000220: 1afd 41bd f824 2dbd 24e2 0eba c46a 13bd
00000230: e29d 13bc 79e4 553d c258 973d bd92 b2bd
00000240: 64ff d83d d123 193e 0dd1 c4bc 64eb bf3d
00000250: acbc b43d 793e 7dbd db44 01be f66d b43d
00000260: 75c9 2e3e 4537 8c3d 0441 ad3c c040 113d
00000270: e5aa 1bbd 2553 0b3e 98c8 963d d2c4 c9bd
00000280: ea1a 41bd 0461 2bbd 5cd6 063e 3239 a0bd
00000290: cecc d4bc 7c00 2e3d c0a5 9dbd 4e43 dfbd
000002a0: 1585 313e 4921 9bbd 682b 2c3d 40df f13c
000002b0: c862 4ebc d588 d1bd 3815 473d aa40 82bd
000002c0: c1ee af3b 33c3 6d3d 94a7 953d 1c72 51bd
000002d0: 36bb 313d 61b7 d43d 9ca9 7fbd 0e86 4ebd
000002e0: 100e 043d 29e4 c83d d97f b13d 90c3 e73d
000002f0: f44b d63c 7a6b 4d3d 5a4a 383c b98a 813d
00000300: fd7a 1d3d 353b 6fbb 30e7 4d3e de46 0d3e
00000310: 4c86 0e3e 2d60 04be fb62 c5bc 5f79 9d3c
00000320: 6fd0 cf3d a892 3e3e 816a a93c ae22 8ebc
00000330: eada 1f3e 87cc 2f3e df97 1d3b 8025 3d3c
00000340: 89f1 3d3d c226 e2bd e48c 8e3d 903c 2dbd
00000350: 07aa 54bd 3ac2 7a3d 23f6 89bd ab68 8c3d
00000360: 69c4 953d f668 9e3a 0824 aa3d 6d6a 4e3e
00000370: 2cc3 ccbc d28f b33d 62dc d9bd 5319 36bc
00000380: 6dbd 9a3d 179d 113e 7444 cf3d c329 b1bc
00000390: 185e 793d e16e 373d ec2d c43c c5cc 0b3e
000003a0: cecc f73b 7cdc c9bd df4e 0a3d ce29 9439
000003b0: 85fc 82bd 80a3 8d3d 0236 adbd 86a8 a5bd
000003c0: fc73 0cbd eb50 cebd c429 89bd cb68 3b3a
000003d0: 5aa3 f83d 29c0 af3d 6ef2 0e3e 6dfb b7bc
000003e0: 49ce e23d 7c89 fc3d abd9 48bd 84b2 023b
000003f0: d9ec 86bc b55c bf3d 8080 f13c 1f03 a13c
-0.019540146 -0.05222387 -0.09150448 -0.053519093 0.049066342 0.028821236 0.005159719 -0.048967496
0.05429822 0.034235783 -0.011807886 0.016782697 -0.09706714 0.045047596 0.043849073 0.055908836
-0.026312131 0.013607232 -0.04988927 -0.03643501 -0.070807174 -0.09451734 -0.03564769 -0.087665744
-0.056763772 -0.038944058 0.0069275456 -0.03627654 -0.04044409 -0.0135185 -0.064655095 -0.019795706
-0.0927571 0.019643528 0.04341913 0.026382938 -0.0418113 -0.063232146 -0.08425275 -0.0066925758
-0.015452642 0.03409061 -0.09394224 0.022401858 -0.043612525 0.005805586 0.03240194 -0.03665424
0.025393538 0.011824408 -0.07952247 0.043885477 -0.007441009 -0.052021764 0.052013658 -0.008846526
-0.07818612 0.05640302 0.030861078 -0.019336117 -0.08074695 -0.07101601 -0.028447539 -0.089776635
-0.02794414 -0.06963522 0.038160678 -0.09076946 0.008338244 0.015379721 -0.031140909 -0.024075005
-0.013422122 -0.014716603 0.0503798 0.05275871 -0.0825734 -0.08564039 0.05322377 0.029162781
-0.03592657 0.05416729 0.03140838 -0.10695131 -0.07411254 -0.0021496161 -0.0066063832 -0.11634907
0.05658694 -0.07720738 -0.077874705 0.07205738 -0.047550593 -0.08376635 -0.0681774 -0.08559621
-0.011622835 -0.06649175 -0.026199585 0.061886474 0.0051198835 -0.013271217 -0.07645326 0.037128117
0.031488527 0.012251432 -0.060392532 -0.059326857 -0.073828734 -0.004251129 -0.0024794228 -0.07908273
0.05644164 0.033288233 0.01113302 0.030891122 -0.011033018 0.080489404 0.037231646 -0.039937004
0.0026424385 -0.095866375 -0.03046928 -0.039252643 0.0035673704 -0.09870048 0.008115448 -0.01533255
-0.026062485 0.12888765 0.15220426 0.20504399 0.107948 -0.052792434 -0.020658454 -0.009298033
-0.047360517 -0.042271584 -0.00054505677 -0.03599049 -0.00900981 0.05221984 0.07389976 -0.08719394
0.10595587 0.14955069 -0.024025464 0.09371069 0.08825049 -0.061827157 -0.12623923 0.08810036
0.17069037 0.06846479 0.021149166 0.03546214 -0.038004775 0.13605936 0.07362479 -0.098519936
-0.047144808 -0.04184057 0.13167709 -0.07823409 -0.025976565 0.04248093 -0.0769763 -0.10901509
0.17335923 -0.07574708 0.042033583 0.0295254 -0.0125967935 -0.10231177 0.04860422 -0.0635999
0.005369038 0.058047485 0.073073536 -0.051134214 0.04339143 0.10386539 -0.06241761 -0.050420813
0.032239974 0.09809143 0.08666963 0.113165975 0.026159264 0.050151326 0.011248196 0.06325287
0.03844737 -0.0036503796 0.20107722 0.13796565 0.13918418 -0.12927313 -0.02409505 0.019222913
0.101471774 0.18610632 0.020680668 -0.017350521 0.15610853 0.17167865 0.002404682 0.011544585
0.046372924 -0.11042549 0.069604665 -0.042294085 -0.051919963 0.061220385 -0.067364 0.06855901
0.07312853 0.0012085724 0.08307654 0.20157786 -0.024995409 0.08767666 -0.10637738 -0.011114436
0.07555661 0.14220081 0.10120478 -0.021626359 0.06088075 0.044783477 0.023947679 0.13652332
0.0075622564 -0.09856507 0.033766624 0.00028259907 -0.063958205 0.06915951 -0.08457567 -0.08088784
-0.0342903 -0.10074028 -0.06697419 0.0007149099 0.12140532 0.085815735 0.13959667 -0.022458756
0.11074502 0.123309106 -0.04903571 0.001994283 -0.01647036 0.09343854 0.029480219 0.019654809

fc2.bias f4 [64]
00000000: e82c d5bd 2ff2 113e 21fe d33d fc04 393d
00000010: 94be 263d 23eb cd3d 0e25 dd3d 7cf3 27ba
00000020: 771a 193e 9a0e 693d 28b6 8b3d 0f86 c4bc
00000030: 4da7 a3bc 2130 a43c 97f0 9e3d 5f9e 9fbb
00000040: 7233 5c3d 5899 d33c fe4f 253c e211 343d
00000050: 1569 ee3d 74ce 073e 2587 39bc 5a79 8ebc
00000060: c98f 2e3c c9f2 acbc 72f9 b93a 8fce c8bc
00000070: 66e9 c6bc ae52 f53c d40e 263e d635 013d
00000080: b211 c43d de85 7bbd c41f 413d 371d 2b3d
00000090: 008c 2f3c c2e9 893d 3a90 fa3d d5ef b03c
000000a0: ce63 583d 38e4 4b3d ab19 f33d 6ad4 763d
000000b0: 4f01 27bd 0e38 f03c 7885 9d3d acbe a4bc
000000c0: c4c7 10bd 7cc1 9a3d 485c 9c3d 36ab 8d3d
000000d0: 303b 293e bdce 3d3d 1d2d 9f3d 6bf2 913d
000000e0: 6698 5b3d 7000 ff3d ef5b 693d 1744 863d
000000f0: 3c7a 843d c190 cd3d 6e33 183b 6fa2 44bb
-0.10408956 0.14252542 0.103512056 0.04517077 0.040709093 0.100546144 0.10798083 -0.00064068264
0.14951502 0.05689869 0.06821853 -0.023989705 -0.019977236 0.02004248 0.077607326 -0.004871174
0.05376 0.025829956 0.010089872 0.043962367 0.116411366 0.1326235 -0.011323725 -0.01739185
0.010654398 -0.021111863 0.001418872 -0.024512557 -0.024281215 0.029946651 0.16216594 0.031545483
0.095736876 -0.061406963 0.047149435 0.04177591 0.010714531 0.06734039 0.1223454 0.021598736
0.052829556 0.049778193 0.1187013 0.060261168 -0.040772732 0.029323604 0.07691473 -0.02011045
-0.03534676 0.075564355 0.07634789 0.069174215 0.16526484 0.04633974 0.077722766 0.07126316
0.053612135 0.12451255 0.05697244 0.06555956 0.06468627 0.10037375 0.0023224014 -0.0030004045

fc3.weight f4 [5, 64]
00000000: c666 80bd c0fe ac3c 5ac1 3abe f053 b43d
00000010: 2e75 e9bc 959b 8f3e 85bf 29bb 9114 893c
00000020: fa80 e53c 088c 7abe 5261 113e e76f 7ebe
00000030: a29c 12be 3026 91be 3213 e13d 5b2d 433c
00000040: 0ad7 5dbe 6e7d dc3d 8ed7 50be f72c 8d3e
00000050: 0054 453e afe4 853d bb95 ca3d 65b7 75be
00000060: 3c31 28be 5030 1cbe a841 b5bd f9bd 6dbe
00000070: 1fcc e33d edbe 623e 8122 193e ef7a 433e
00000080: 115c 063e 57e5 f2bb 1f19 6bbe db20 a7bd
00000090: 9b8f 8abe bc1f e1bc 5d45 543e c557 833e
000000a0: 8368 263e 7af4 0c3e ed8c 22be fc7e bf3d
000000b0: a21e c9bd 9910 36be 26a0 ddbd 646c 9cbd
000000c0: 8e5c 74be c450 1bbe 435b 35be 2120 81bd
000000d0: 1070 903d 8f0d 7ebd 57c4 69be 8958 4d3e
000000e0: 1f38 0b3e c355 2b3e 05ad 20be 033e 52be
000000f0: f7e9 57be d39e e5bd 9961 53be 7edf dcbc
00000100: 9f76 b43c b67d 283e 7d38 aabd 442b 983d
00000110: 9cc9 71be e98f 11be fee9 ea3d 9b90 98be
00000120: 66aa 083e a1e9 8f3e cb6e a43c 473e 2f3e
00000130: c777 783e 889f 79be da8c bebd ed87 6bbe
00000140: c9ea 463e 3fbb 9dbe 5525 46be 80df 843c
00000150: bf71 323e 59b5 05bb 589f 12bd f74e 073e
00000160: f460 d9bd 906a 41be 00a1 23be 08f6 88be
00000170: c916 91be 7788 c4bd 189e 4e3e 32d4 5ebe
00000180: 0f87 d43d 66b7 dabd bff1 683e d1ce a9bc
00000190: 6165 843c 2d74 e3bb c394 97be 9f39 c3bd
000001a0: aa75 c3bd 73a6 243e 0452 533e d698 a3be
000001b0: fda3 d23d 6f38 81bd 2d2e 51be 18bd 3ebe
000001c0: fa3f 87be dc12 f53c 0e5c 773e d310 783e
000001d0: 24f0 333e 7cfa 9abe 03ae 7dbe bbda 3cbe
000001e0: e019 143e 9fcb b6be 28f4 003e 679e 77be
000001f0: 4efe 06be d466 6b3e 07cb 363e 6a85 dfbd
00000200: 6660 73bd f37a 8dbe 453e 41be 6e78 0fbe
00000210: 6b22 7cbe 85e2 5cbe d523 953d 42e8 2cbd
00000220: a0e2 29be 6a5d d2bd 3fc0 91be da1f 87bd
00000230: 8326 373e 1ab2 543e 57ee 68be 8ee2 923d
00000240: 03f3 d03c 268b 12be 4ead 233e 814b 08be
00000250: 513f 93be b1b1 02be 640f 0ebe 5cc0 d93a
00000260: 34b5 523e 230e 493e 44b3 7bbd 8bb1 8c3d
00000270: eca4 23be 6b50 95be 7244 7cbe 5757 063e
00000280: a9c1 073e a22c 093e 895b 2f3e e4ec 8fb9
00000290: ae86 2cbe 3477 a2be 529e 15be c0f3 84be
000002a0: 7ec7 99bd 8f59 f83c c7c3 463e 53e1 3bbe
000002b0: bb0e 533e 5a7d 4d3e 05dd 3b3e 3ad5 373e
000002c0: 1031 863d 90d7 25be ef62 84be c64e f8bd
000002d0: 064c 0fbe 1daa 9ebe 55c5 28be f997 e7bc
000002e0: be2e 063e acfe 283e 59aa 353e cfe2 e73d
000002f0: 90bb 603e 002b 983d 19ca f4bd a892 8ebd
00000300: 3b99 a9bd 208d 58be 4f43 163e e7a3 92be
00000310: 1bae 0b3e 9707 36be 070c 87be 1bb1 39be
00000320: 0300 85be e611 0bbe 00dd 62bd de47 173e
00000330: ea73 69be 998d 7d3d db80 803e bbd7 143e
00000340: f550 6c3c f576 303e 94e4 b9bd b22f 49be
00000350: 74ba 63be 1c8f 443e 4b67 ecbd caa7 ab3d
00000360: 6fee 29be 8283 463e ecf5 0fbd ffba 45be
00000370: 5fe6 523e 16ce c23c e18f c9bd 1b36 38be
00000380: 129d 0abe 174f c5bc 24e3 52be 957c 443e
00000390: 00ea 873e f955 8c3d d1a4 343e d587 883d
000003a0: 89da 4e3e 0dc8 afbe dcad 63be 0546 373e
000003b0: a705 fabd 05a4 c4bd 5ea8 54be b6bb 63be
000003c0: 5c9b 2e3d cc87 613e 7385 d33d 9b0c 04be
000003d0: c453 60be 88f0 ec3d 471d 0e3e 0435 c8bd
000003e0: c92c 42be 7abb dbbd 9903 8ebe b1ac f43d
000003f0: e60e 0dbe a03e 6bbe f90a 6dbb ad21 c7bd
-0.062696025 0.021117568 -0.1823782 0.08805072 -0.028498258 0.28048387 -0.0025901508 0.01673344
0.028015602 -0.2446748 0.14197281 -0.24847375 -0.14317563 -0.28349447 0.10989989 0.011912669
-0.21664062 0.10766111 -0.20394728 0.27573368 0.19270325 0.065377586 0.0989184 -0.2399574
-0.16425031 -0.15252805 -0.088504136 -0.23217 0.111229174 0.22143145 0.14954568 0.19089864
0.13121058 -0.0074125933 -0.22958802 -0.081605636 -0.27062687 -0.027480952 0.20729585 0.256529
0.16250806 0.13765135 -0.15874071 0.09350392 -0.09820296 -0.17779769 -0.108215615 -0.07637861
-0.23863432 -0.15167528 -0.17710595 -0.06304956 0.07052624 -0.06202465 -0.22828804 0.20053305
0.13595627 0.16731934 -0.15691002 -0.20531468 -0.21085344 -0.11211934 -0.206427 -0.026962038
0.02202922 0.16454205 -0.083115555 0.07430127 -0.23612064 -0.14215054 0.11470412 -0.29797825
0.13346252 0.28107932 0.020072361 0.171136 0.24264441 -0.24377263 -0.09304209 -0.2300107
0.19425501 -0.3080692 -0.19350179 0.016219854 0.17426203 -0.002040228 -0.035796493 0.13213716
-0.106141955 -0.18888307 -0.15979385 -0.26750207 -0.28337696 -0.09596341 0.20177495 -0.21760634
0.10377323 -0.10679512 0.22748469 -0.0207285 0.016161622 -0.0069413395 -0.29605684 -0.09532475
-0.09543927 0.1607912 0.20636755 -0.31952542 0.102851845 -0.06309592 -0.20427771 -0.18626821
-0.26415998 0.02991622 0.2415621 0.24225168 0.17572075 -0.3026923 -0.24773411 -0.18442814
0.14462996 -0.35702226 0.12593138 -0.2418152 -0.13182947 0.22988445 0.17850886 -0.109141186
-0.059418105 -0.27632865 -0.1887141 -0.14010784 -0.24622504 -0.21570785 0.07282225 -0.042213686
-0.16590357 -0.102717236 -0.28466985 -0.06597872 0.17885785 0.20771065 -0.2274717 0.07172118
0.025506502 -0.14310893 0.15984079 -0.13310052 -0.28759244 -0.12763096 -0.13873059 0.0016613114
0.20576936 0.19634299 -0.061450258 0.06869801 -0.15980881 -0.29162917 -0.24635485 0.13119255
0.13257469 0.13395932 0.17124762 -0.00027451583 -0.16848251 -0.3173157 -0.14611176 -0.25967216
-0.07508753 0.030316142 0.1941062 -0.18347673 0.20611088 0.20067349 0.18346031 0.17952433
0.06552327 -0.16195512 -0.2585673 -0.121244 -0.13993844 -0.3098916 -0.16481526 -0.028270708
0.13103768 0.165034 0.17740764 0.11322557 0.2194655 0.074300766 -0.119526096 -0.06961566
-0.082811795 -0.21147585 0.14674114 -0.28640673 0.13640635 -0.17776333 -0.26376364 -0.18133967
-0.2597657 -0.13581046 -0.055386543 0.14773509 -0.22798124 0.061902616 0.2509831 0.1453542
0.014423599 0.17232879 -0.09076801 -0.196471 -0.22239095 0.19195217 -0.11543139 0.083816126
-0.16594861 0.19386104 -0.03514664 -0.19309615 0.20595692 0.02377991 -0.09841896 -0.1798939
-0.1353648 -0.024085565 -0.2059446 0.1918815 0.26545715 0.068523355 0.17640997 0.06666533
0.20200552 -0.34332314 -0.22234291 0.17897804 -0.12208109 -0.09601597 -0.20767352 -0.22239575
0.04262863 0.22024459 0.10328188 -0.12895434 -0.21906954 0.11569315 0.13878356 -0.09775737
-0.18962397 -0.10729118 -0.2773712 0.11947001 -0.13775215 -0.22973108 -0.003616987 -0.0972322

fc3.bias f4 [5]
00000000: e2c8 093e 53db e93c bc42 98bc 3134 6a3d
00000010: 92a2 3dbe
0.13455537 0.028546965 -0.018586509 0.05717868 -0.18519047
